module attributes {torch.debug_module_name = "TestModule"} {
  func @forward(%arg0: !torch.vtensor<[?,?,?,?],f32>) -> (!torch.vtensor<[?,?,6],f32>, !torch.list<!torch.tensor>) {
    %0 = torch.vtensor.literal(dense<20> : tensor<6x2xsi64>) : !torch.vtensor<[6,2],si64>
    %1 = torch.vtensor.literal(dense<[… > : tensor<36xf32>) : !torch.vtensor<[36],f32>
    %2 = torch.vtensor.literal(dense<"…"> : tensor<36x64x1x1xf32>) : !torch.vtensor<[36,64,1,1],f32>
    %3 = torch.vtensor.literal(dense<0.000000e+00> : tensor<64xf32>) : !torch.vtensor<[64],f32>
    %4 = torch.vtensor.literal(dense<1.000000e+00> : tensor<64xf32>) : !torch.vtensor<[64],f32>
    %none = torch.constant.none
    %5 = torch.vtensor.literal(dense<"…"> : tensor<64x64x3x3xf32>) : !torch.vtensor<[64,64,3,3],f32>
    %6 = torch.vtensor.literal(dense<"…"> : tensor<64x64x3x3xf32>) : !torch.vtensor<[64,64,3,3],f32>
    %7 = torch.vtensor.literal(dense<"…"> : tensor<64x64x3x3xf32>) : !torch.vtensor<[64,64,3,3],f32>
    %8 = torch.vtensor.literal(dense<"…"> : tensor<64x64x3x3xf32>) : !torch.vtensor<[64,64,3,3],f32>
    %9 = torch.vtensor.literal(dense<"…"> : tensor<64x64x3x3xf32>) : !torch.vtensor<[64,64,3,3],f32>
    %10 = torch.vtensor.literal(dense<"…"> : tensor<64x32x3x3xf32>) : !torch.vtensor<[64,32,3,3],f32>
    %11 = torch.vtensor.literal(dense<0.000000e+00> : tensor<32xf32>) : !torch.vtensor<[32],f32>
    %12 = torch.vtensor.literal(dense<1.000000e+00> : tensor<32xf32>) : !torch.vtensor<[32],f32>
    %13 = torch.vtensor.literal(dense<"…"> : tensor<32x16x3x3xf32>) : !torch.vtensor<[32,16,3,3],f32>
    %14 = torch.vtensor.literal(dense<0.000000e+00> : tensor<16xf32>) : !torch.vtensor<[16],f32>
    %15 = torch.vtensor.literal(dense<1.000000e+00> : tensor<16xf32>) : !torch.vtensor<[16],f32>
    %16 = torch.vtensor.literal(dense<"…"> : tensor<16x3x3x3xf32>) : !torch.vtensor<[16,3,3,3],f32>
    %int-2 = torch.constant.int -2
    %true = torch.constant.bool true
    %float1.000000e-05 = torch.constant.float 1.000000e-05
    %float1.000000e-01 = torch.constant.float 1.000000e-01
    %float0.000000e00 = torch.constant.float 0.000000e+00
    %float1.000000e00 = torch.constant.float 1.000000e+00
    %float2.000000e00 = torch.constant.float 2.000000e+00
    %float3.000000e00 = torch.constant.float 3.000000e+00
    %float4.000000e00 = torch.constant.float 4.000000e+00
    %float5.000000e00 = torch.constant.float 5.000000e+00
    %float6.000000e00 = torch.constant.float 6.000000e+00
    %float7.000000e00 = torch.constant.float 7.000000e+00
    %float8.000000e00 = torch.constant.float 8.000000e+00
    %float9.000000e00 = torch.constant.float 9.000000e+00
    %float1.000000e01 = torch.constant.float 1.000000e+01
    %float1.100000e01 = torch.constant.float 1.100000e+01
    %float1.200000e01 = torch.constant.float 1.200000e+01
    %float1.300000e01 = torch.constant.float 1.300000e+01
    %float1.400000e01 = torch.constant.float 1.400000e+01
    %float1.500000e01 = torch.constant.float 1.500000e+01
    %float1.600000e01 = torch.constant.float 1.600000e+01
    %float1.700000e01 = torch.constant.float 1.700000e+01
    %float1.800000e01 = torch.constant.float 1.800000e+01
    %float1.900000e01 = torch.constant.float 1.900000e+01
    %int2 = torch.constant.int 2
    %int-1 = torch.constant.int -1
    %str = torch.constant.str "AssertionError: "
    %int3 = torch.constant.int 3
    %int0 = torch.constant.int 0
    %int1 = torch.constant.int 1
    %int4 = torch.constant.int 4
    %false = torch.constant.bool false
    %int6 = torch.constant.int 6
    %int0_0 = torch.constant.int 0
    %17 = torch.aten.size.int %arg0, %int0_0 : !torch.vtensor<[?,?,?,?],f32>, !torch.int -> !torch.int
    %int1_1 = torch.constant.int 1
    %18 = torch.aten.size.int %arg0, %int1_1 : !torch.vtensor<[?,?,?,?],f32>, !torch.int -> !torch.int
    %int2_2 = torch.constant.int 2
    %19 = torch.aten.size.int %arg0, %int2_2 : !torch.vtensor<[?,?,?,?],f32>, !torch.int -> !torch.int
    %int3_3 = torch.constant.int 3
    %20 = torch.aten.size.int %arg0, %int3_3 : !torch.vtensor<[?,?,?,?],f32>, !torch.int -> !torch.int
    %21 = torch.prim.ListConstruct %17, %18, %19, %20 : (!torch.int, !torch.int, !torch.int, !torch.int) -> !torch.list<!torch.int>
    %22 = torch.aten.slice.t %21, %int-2, %none, %int1 : !torch.list<!torch.int>, !torch.int, !torch.none, !torch.int -> !torch.list<!torch.int>
    %23 = torch.prim.ListConstruct %int1, %int1 : (!torch.int, !torch.int) -> !torch.list<!torch.int>
    %24 = torch.prim.ListConstruct %int1, %int1 : (!torch.int, !torch.int) -> !torch.list<!torch.int>
    %25 = torch.prim.ListConstruct %int1, %int1 : (!torch.int, !torch.int) -> !torch.list<!torch.int>
    %26 = torch.aten.conv2d %arg0, %16, %none, %23, %24, %25, %int1 : !torch.vtensor<[?,?,?,?],f32>, !torch.vtensor<[16,3,3,3],f32>, !torch.none, !torch.list<!torch.int>, !torch.list<!torch.int>, !torch.list<!torch.int>, !torch.int -> !torch.vtensor<[?,16,?,?],f32>
    %27 = torch.aten.batch_norm %26, %15, %14, %14, %15, %false, %float1.000000e-01, %float1.000000e-05, %true : !torch.vtensor<[?,16,?,?],f32>, !torch.vtensor<[16],f32>, !torch.vtensor<[16],f32>, !torch.vtensor<[16],f32>, !torch.vtensor<[16],f32>, !torch.bool, !torch.float, !torch.float, !torch.bool -> !torch.vtensor<[?,16,?,?],f32>
    %28 = torch.aten.relu %27 : !torch.vtensor<[?,16,?,?],f32> -> !torch.vtensor<[?,16,?,?],f32>
    %29 = torch.prim.ListConstruct %int2, %int2 : (!torch.int, !torch.int) -> !torch.list<!torch.int>
    %30 = torch.prim.ListConstruct %int2, %int2 : (!torch.int, !torch.int) -> !torch.list<!torch.int>
    %31 = torch.prim.ListConstruct %int0, %int0 : (!torch.int, !torch.int) -> !torch.list<!torch.int>
    %32 = torch.prim.ListConstruct %int1, %int1 : (!torch.int, !torch.int) -> !torch.list<!torch.int>
    %33 = torch.aten.max_pool2d %28, %29, %30, %31, %32, %false : !torch.vtensor<[?,16,?,?],f32>, !torch.list<!torch.int>, !torch.list<!torch.int>, !torch.list<!torch.int>, !torch.list<!torch.int>, !torch.bool -> !torch.vtensor<[?,16,?,?],f32>
    %34 = torch.prim.ListConstruct %int1, %int1 : (!torch.int, !torch.int) -> !torch.list<!torch.int>
    %35 = torch.prim.ListConstruct %int1, %int1 : (!torch.int, !torch.int) -> !torch.list<!torch.int>
    %36 = torch.prim.ListConstruct %int1, %int1 : (!torch.int, !torch.int) -> !torch.list<!torch.int>
    %37 = torch.aten.conv2d %33, %13, %none, %34, %35, %36, %int1 : !torch.vtensor<[?,16,?,?],f32>, !torch.vtensor<[32,16,3,3],f32>, !torch.none, !torch.list<!torch.int>, !torch.list<!torch.int>, !torch.list<!torch.int>, !torch.int -> !torch.vtensor<[?,32,?,?],f32>
    %38 = torch.aten.batch_norm %37, %12, %11, %11, %12, %false, %float1.000000e-01, %float1.000000e-05, %true : !torch.vtensor<[?,32,?,?],f32>, !torch.vtensor<[32],f32>, !torch.vtensor<[32],f32>, !torch.vtensor<[32],f32>, !torch.vtensor<[32],f32>, !torch.bool, !torch.float, !torch.float, !torch.bool -> !torch.vtensor<[?,32,?,?],f32>
    %39 = torch.aten.relu %38 : !torch.vtensor<[?,32,?,?],f32> -> !torch.vtensor<[?,32,?,?],f32>
    %40 = torch.prim.ListConstruct %int2, %int2 : (!torch.int, !torch.int) -> !torch.list<!torch.int>
    %41 = torch.prim.ListConstruct %int2, %int2 : (!torch.int, !torch.int) -> !torch.list<!torch.int>
    %42 = torch.prim.ListConstruct %int0, %int0 : (!torch.int, !torch.int) -> !torch.list<!torch.int>
    %43 = torch.prim.ListConstruct %int1, %int1 : (!torch.int, !torch.int) -> !torch.list<!torch.int>
    %44 = torch.aten.max_pool2d %39, %40, %41, %42, %43, %false : !torch.vtensor<[?,32,?,?],f32>, !torch.list<!torch.int>, !torch.list<!torch.int>, !torch.list<!torch.int>, !torch.list<!torch.int>, !torch.bool -> !torch.vtensor<[?,32,?,?],f32>
    %45 = torch.prim.ListConstruct %int1, %int1 : (!torch.int, !torch.int) -> !torch.list<!torch.int>
    %46 = torch.prim.ListConstruct %int1, %int1 : (!torch.int, !torch.int) -> !torch.list<!torch.int>
    %47 = torch.prim.ListConstruct %int1, %int1 : (!torch.int, !torch.int) -> !torch.list<!torch.int>
    %48 = torch.aten.conv2d %44, %10, %none, %45, %46, %47, %int1 : !torch.vtensor<[?,32,?,?],f32>, !torch.vtensor<[64,32,3,3],f32>, !torch.none, !torch.list<!torch.int>, !torch.list<!torch.int>, !torch.list<!torch.int>, !torch.int -> !torch.vtensor<[?,64,?,?],f32>
    %49 = torch.aten.batch_norm %48, %4, %3, %3, %4, %false, %float1.000000e-01, %float1.000000e-05, %true : !torch.vtensor<[?,64,?,?],f32>, !torch.vtensor<[64],f32>, !torch.vtensor<[64],f32>, !torch.vtensor<[64],f32>, !torch.vtensor<[64],f32>, !torch.bool, !torch.float, !torch.float, !torch.bool -> !torch.vtensor<[?,64,?,?],f32>
    %50 = torch.aten.relu %49 : !torch.vtensor<[?,64,?,?],f32> -> !torch.vtensor<[?,64,?,?],f32>
    %51 = torch.prim.ListConstruct %int2, %int2 : (!torch.int, !torch.int) -> !torch.list<!torch.int>
    %52 = torch.prim.ListConstruct %int2, %int2 : (!torch.int, !torch.int) -> !torch.list<!torch.int>
    %53 = torch.prim.ListConstruct %int0, %int0 : (!torch.int, !torch.int) -> !torch.list<!torch.int>
    %54 = torch.prim.ListConstruct %int1, %int1 : (!torch.int, !torch.int) -> !torch.list<!torch.int>
    %55 = torch.aten.max_pool2d %50, %51, %52, %53, %54, %false : !torch.vtensor<[?,64,?,?],f32>, !torch.list<!torch.int>, !torch.list<!torch.int>, !torch.list<!torch.int>, !torch.list<!torch.int>, !torch.bool -> !torch.vtensor<[?,64,?,?],f32>
    %56 = torch.prim.ListConstruct %int1, %int1 : (!torch.int, !torch.int) -> !torch.list<!torch.int>
    %57 = torch.prim.ListConstruct %int1, %int1 : (!torch.int, !torch.int) -> !torch.list<!torch.int>
    %58 = torch.prim.ListConstruct %int1, %int1 : (!torch.int, !torch.int) -> !torch.list<!torch.int>
    %59 = torch.aten.conv2d %55, %9, %none, %56, %57, %58, %int1 : !torch.vtensor<[?,64,?,?],f32>, !torch.vtensor<[64,64,3,3],f32>, !torch.none, !torch.list<!torch.int>, !torch.list<!torch.int>, !torch.list<!torch.int>, !torch.int -> !torch.vtensor<[?,64,?,?],f32>
    %60 = torch.aten.batch_norm %59, %4, %3, %3, %4, %false, %float1.000000e-01, %float1.000000e-05, %true : !torch.vtensor<[?,64,?,?],f32>, !torch.vtensor<[64],f32>, !torch.vtensor<[64],f32>, !torch.vtensor<[64],f32>, !torch.vtensor<[64],f32>, !torch.bool, !torch.float, !torch.float, !torch.bool -> !torch.vtensor<[?,64,?,?],f32>
    %61 = torch.aten.relu %60 : !torch.vtensor<[?,64,?,?],f32> -> !torch.vtensor<[?,64,?,?],f32>
    %62 = torch.prim.ListConstruct %int2, %int2 : (!torch.int, !torch.int) -> !torch.list<!torch.int>
    %63 = torch.prim.ListConstruct %int2, %int2 : (!torch.int, !torch.int) -> !torch.list<!torch.int>
    %64 = torch.prim.ListConstruct %int0, %int0 : (!torch.int, !torch.int) -> !torch.list<!torch.int>
    %65 = torch.prim.ListConstruct %int1, %int1 : (!torch.int, !torch.int) -> !torch.list<!torch.int>
    %66 = torch.aten.max_pool2d %61, %62, %63, %64, %65, %false : !torch.vtensor<[?,64,?,?],f32>, !torch.list<!torch.int>, !torch.list<!torch.int>, !torch.list<!torch.int>, !torch.list<!torch.int>, !torch.bool -> !torch.vtensor<[?,64,?,?],f32>
    %67 = torch.prim.ListConstruct %int1, %int1 : (!torch.int, !torch.int) -> !torch.list<!torch.int>
    %68 = torch.prim.ListConstruct %int1, %int1 : (!torch.int, !torch.int) -> !torch.list<!torch.int>
    %69 = torch.prim.ListConstruct %int1, %int1 : (!torch.int, !torch.int) -> !torch.list<!torch.int>
    %70 = torch.aten.conv2d %66, %8, %none, %67, %68, %69, %int1 : !torch.vtensor<[?,64,?,?],f32>, !torch.vtensor<[64,64,3,3],f32>, !torch.none, !torch.list<!torch.int>, !torch.list<!torch.int>, !torch.list<!torch.int>, !torch.int -> !torch.vtensor<[?,64,?,?],f32>
    %71 = torch.aten.batch_norm %70, %4, %3, %3, %4, %false, %float1.000000e-01, %float1.000000e-05, %true : !torch.vtensor<[?,64,?,?],f32>, !torch.vtensor<[64],f32>, !torch.vtensor<[64],f32>, !torch.vtensor<[64],f32>, !torch.vtensor<[64],f32>, !torch.bool, !torch.float, !torch.float, !torch.bool -> !torch.vtensor<[?,64,?,?],f32>
    %72 = torch.aten.relu %71 : !torch.vtensor<[?,64,?,?],f32> -> !torch.vtensor<[?,64,?,?],f32>
    %73 = torch.prim.ListConstruct %int1, %int1 : (!torch.int, !torch.int) -> !torch.list<!torch.int>
    %74 = torch.prim.ListConstruct %int1, %int1 : (!torch.int, !torch.int) -> !torch.list<!torch.int>
    %75 = torch.prim.ListConstruct %int1, %int1 : (!torch.int, !torch.int) -> !torch.list<!torch.int>
    %76 = torch.aten.conv2d %72, %7, %none, %73, %74, %75, %int1 : !torch.vtensor<[?,64,?,?],f32>, !torch.vtensor<[64,64,3,3],f32>, !torch.none, !torch.list<!torch.int>, !torch.list<!torch.int>, !torch.list<!torch.int>, !torch.int -> !torch.vtensor<[?,64,?,?],f32>
    %77 = torch.aten.batch_norm %76, %4, %3, %3, %4, %false, %float1.000000e-01, %float1.000000e-05, %true : !torch.vtensor<[?,64,?,?],f32>, !torch.vtensor<[64],f32>, !torch.vtensor<[64],f32>, !torch.vtensor<[64],f32>, !torch.vtensor<[64],f32>, !torch.bool, !torch.float, !torch.float, !torch.bool -> !torch.vtensor<[?,64,?,?],f32>
    %78 = torch.aten.relu %77 : !torch.vtensor<[?,64,?,?],f32> -> !torch.vtensor<[?,64,?,?],f32>
    %79 = torch.prim.ListConstruct %int1, %int1 : (!torch.int, !torch.int) -> !torch.list<!torch.int>
    %80 = torch.prim.ListConstruct %int1, %int1 : (!torch.int, !torch.int) -> !torch.list<!torch.int>
    %81 = torch.prim.ListConstruct %int1, %int1 : (!torch.int, !torch.int) -> !torch.list<!torch.int>
    %82 = torch.aten.conv2d %78, %6, %none, %79, %80, %81, %int1 : !torch.vtensor<[?,64,?,?],f32>, !torch.vtensor<[64,64,3,3],f32>, !torch.none, !torch.list<!torch.int>, !torch.list<!torch.int>, !torch.list<!torch.int>, !torch.int -> !torch.vtensor<[?,64,?,?],f32>
    %83 = torch.aten.batch_norm %82, %4, %3, %3, %4, %false, %float1.000000e-01, %float1.000000e-05, %true : !torch.vtensor<[?,64,?,?],f32>, !torch.vtensor<[64],f32>, !torch.vtensor<[64],f32>, !torch.vtensor<[64],f32>, !torch.vtensor<[64],f32>, !torch.bool, !torch.float, !torch.float, !torch.bool -> !torch.vtensor<[?,64,?,?],f32>
    %84 = torch.aten.relu %83 : !torch.vtensor<[?,64,?,?],f32> -> !torch.vtensor<[?,64,?,?],f32>
    %85 = torch.prim.ListConstruct %int1, %int1 : (!torch.int, !torch.int) -> !torch.list<!torch.int>
    %86 = torch.prim.ListConstruct %int1, %int1 : (!torch.int, !torch.int) -> !torch.list<!torch.int>
    %87 = torch.prim.ListConstruct %int1, %int1 : (!torch.int, !torch.int) -> !torch.list<!torch.int>
    %88 = torch.aten.conv2d %84, %5, %none, %85, %86, %87, %int1 : !torch.vtensor<[?,64,?,?],f32>, !torch.vtensor<[64,64,3,3],f32>, !torch.none, !torch.list<!torch.int>, !torch.list<!torch.int>, !torch.list<!torch.int>, !torch.int -> !torch.vtensor<[?,64,?,?],f32>
    %89 = torch.aten.batch_norm %88, %4, %3, %3, %4, %false, %float1.000000e-01, %float1.000000e-05, %true : !torch.vtensor<[?,64,?,?],f32>, !torch.vtensor<[64],f32>, !torch.vtensor<[64],f32>, !torch.vtensor<[64],f32>, !torch.vtensor<[64],f32>, !torch.bool, !torch.float, !torch.float, !torch.bool -> !torch.vtensor<[?,64,?,?],f32>
    %90 = torch.aten.relu %89 : !torch.vtensor<[?,64,?,?],f32> -> !torch.vtensor<[?,64,?,?],f32>
    %91 = torch.prim.ListConstruct %int1, %int1 : (!torch.int, !torch.int) -> !torch.list<!torch.int>
    %92 = torch.prim.ListConstruct %int0, %int0 : (!torch.int, !torch.int) -> !torch.list<!torch.int>
    %93 = torch.prim.ListConstruct %int1, %int1 : (!torch.int, !torch.int) -> !torch.list<!torch.int>
    %94 = torch.aten.conv2d %90, %2, %1, %91, %92, %93, %int1 : !torch.vtensor<[?,64,?,?],f32>, !torch.vtensor<[36,64,1,1],f32>, !torch.vtensor<[36],f32>, !torch.list<!torch.int>, !torch.list<!torch.int>, !torch.list<!torch.int>, !torch.int -> !torch.vtensor<[?,36,?,?],f32>
    %95 = torch.copy.to_tensor %94 : !torch.tensor<[?,36,?,?],f32>
    %96 = torch.copy.to_vtensor %95 : !torch.vtensor<[?,36,?,?],f32>
    %int0_4 = torch.constant.int 0
    %97 = torch.aten.size.int %96, %int0_4 : !torch.vtensor<[?,36,?,?],f32>, !torch.int -> !torch.int
    %int1_5 = torch.constant.int 1
    %98 = torch.aten.size.int %96, %int1_5 : !torch.vtensor<[?,36,?,?],f32>, !torch.int -> !torch.int
    %int2_6 = torch.constant.int 2
    %99 = torch.aten.size.int %96, %int2_6 : !torch.vtensor<[?,36,?,?],f32>, !torch.int -> !torch.int
    %int3_7 = torch.constant.int 3
    %100 = torch.aten.size.int %96, %int3_7 : !torch.vtensor<[?,36,?,?],f32>, !torch.int -> !torch.int
    %101 = torch.prim.ListConstruct %97, %98, %99, %100 : (!torch.int, !torch.int, !torch.int, !torch.int) -> !torch.list<!torch.int>
    %102:4 = torch.prim.ListUnpack %101 : !torch.list<!torch.int> -> !torch.int, !torch.int, !torch.int, !torch.int
    %103 = torch.copy.to_vtensor %95 : !torch.vtensor<[?,36,?,?],f32>
    %104 = torch.prim.device %103 : !torch.vtensor<[?,36,?,?],f32> -> !torch.Device
    %105 = torch.prim.max.self_int %22 : !torch.list<!torch.int> -> !torch.int
    %106 = torch.aten.tensor.int %105, %none, %none, %false : !torch.int, !torch.none, !torch.none, !torch.bool -> !torch.vtensor<[],si64>
    %107 = torch.aten.to.dtype %106, %int6, %false, %false, %none : !torch.vtensor<[],si64>, !torch.int, !torch.bool, !torch.bool, !torch.none -> !torch.vtensor<[],f32>
    %108 = torch.prim.max.int %102#3, %102#2 : !torch.int, !torch.int -> !torch.int
    %109 = torch.aten.tensor.int %108, %none, %none, %false : !torch.int, !torch.none, !torch.none, !torch.bool -> !torch.vtensor<[],si64>
    %110 = torch.aten.div.Tensor %107, %109 : !torch.vtensor<[],f32>, !torch.vtensor<[],si64> -> !torch.vtensor<[],f32>
    %111 = torch.prim.ListConstruct %float0.000000e00, %float0.000000e00 : (!torch.float, !torch.float) -> !torch.list<!torch.float>
    %112 = torch.prim.ListConstruct %float1.000000e00, %float0.000000e00 : (!torch.float, !torch.float) -> !torch.list<!torch.float>
    %113 = torch.prim.ListConstruct %float2.000000e00, %float0.000000e00 : (!torch.float, !torch.float) -> !torch.list<!torch.float>
    %114 = torch.prim.ListConstruct %float3.000000e00, %float0.000000e00 : (!torch.float, !torch.float) -> !torch.list<!torch.float>
    %115 = torch.prim.ListConstruct %float4.000000e00, %float0.000000e00 : (!torch.float, !torch.float) -> !torch.list<!torch.float>
    %116 = torch.prim.ListConstruct %float5.000000e00, %float0.000000e00 : (!torch.float, !torch.float) -> !torch.list<!torch.float>
    %117 = torch.prim.ListConstruct %float6.000000e00, %float0.000000e00 : (!torch.float, !torch.float) -> !torch.list<!torch.float>
    %118 = torch.prim.ListConstruct %float7.000000e00, %float0.000000e00 : (!torch.float, !torch.float) -> !torch.list<!torch.float>
    %119 = torch.prim.ListConstruct %float8.000000e00, %float0.000000e00 : (!torch.float, !torch.float) -> !torch.list<!torch.float>
    %120 = torch.prim.ListConstruct %float9.000000e00, %float0.000000e00 : (!torch.float, !torch.float) -> !torch.list<!torch.float>
    %121 = torch.prim.ListConstruct %float1.000000e01, %float0.000000e00 : (!torch.float, !torch.float) -> !torch.list<!torch.float>
    %122 = torch.prim.ListConstruct %float1.100000e01, %float0.000000e00 : (!torch.float, !torch.float) -> !torch.list<!torch.float>
    %123 = torch.prim.ListConstruct %float1.200000e01, %float0.000000e00 : (!torch.float, !torch.float) -> !torch.list<!torch.float>
    %124 = torch.prim.ListConstruct %float1.300000e01, %float0.000000e00 : (!torch.float, !torch.float) -> !torch.list<!torch.float>
    %125 = torch.prim.ListConstruct %float1.400000e01, %float0.000000e00 : (!torch.float, !torch.float) -> !torch.list<!torch.float>
    %126 = torch.prim.ListConstruct %float1.500000e01, %float0.000000e00 : (!torch.float, !torch.float) -> !torch.list<!torch.float>
    %127 = torch.prim.ListConstruct %float1.600000e01, %float0.000000e00 : (!torch.float, !torch.float) -> !torch.list<!torch.float>
    %128 = torch.prim.ListConstruct %float1.700000e01, %float0.000000e00 : (!torch.float, !torch.float) -> !torch.list<!torch.float>
    %129 = torch.prim.ListConstruct %float1.800000e01, %float0.000000e00 : (!torch.float, !torch.float) -> !torch.list<!torch.float>
    %130 = torch.prim.ListConstruct %float1.900000e01, %float0.000000e00 : (!torch.float, !torch.float) -> !torch.list<!torch.float>
    %131 = torch.prim.ListConstruct %111, %112, %113, %114, %115, %116, %117, %118, %119, %120, %121, %122, %123, %124, %125, %126, %127, %128, %129, %130 : (!torch.list<!torch.float>, !torch.list<!torch.float>, !torch.list<!torch.float>, !torch.list<!torch.float>, !torch.list<!torch.float>, !torch.list<!torch.float>, !torch.list<!torch.float>, !torch.list<!torch.float>, !torch.list<!torch.float>, !torch.list<!torch.float>, !torch.list<!torch.float>, !torch.list<!torch.float>, !torch.list<!torch.float>, !torch.list<!torch.float>, !torch.list<!torch.float>, !torch.list<!torch.float>, !torch.list<!torch.float>, !torch.list<!torch.float>, !torch.list<!torch.float>, !torch.list<!torch.float>) -> !torch.list<!torch.list<!torch.float>>
    %132 = torch.prim.ListConstruct %float0.000000e00, %float1.000000e00 : (!torch.float, !torch.float) -> !torch.list<!torch.float>
    %133 = torch.prim.ListConstruct %float1.000000e00, %float1.000000e00 : (!torch.float, !torch.float) -> !torch.list<!torch.float>
    %134 = torch.prim.ListConstruct %float2.000000e00, %float1.000000e00 : (!torch.float, !torch.float) -> !torch.list<!torch.float>
    %135 = torch.prim.ListConstruct %float3.000000e00, %float1.000000e00 : (!torch.float, !torch.float) -> !torch.list<!torch.float>
    %136 = torch.prim.ListConstruct %float4.000000e00, %float1.000000e00 : (!torch.float, !torch.float) -> !torch.list<!torch.float>
    %137 = torch.prim.ListConstruct %float5.000000e00, %float1.000000e00 : (!torch.float, !torch.float) -> !torch.list<!torch.float>
    %138 = torch.prim.ListConstruct %float6.000000e00, %float1.000000e00 : (!torch.float, !torch.float) -> !torch.list<!torch.float>
    %139 = torch.prim.ListConstruct %float7.000000e00, %float1.000000e00 : (!torch.float, !torch.float) -> !torch.list<!torch.float>
    %140 = torch.prim.ListConstruct %float8.000000e00, %float1.000000e00 : (!torch.float, !torch.float) -> !torch.list<!torch.float>
    %141 = torch.prim.ListConstruct %float9.000000e00, %float1.000000e00 : (!torch.float, !torch.float) -> !torch.list<!torch.float>
    %142 = torch.prim.ListConstruct %float1.000000e01, %float1.000000e00 : (!torch.float, !torch.float) -> !torch.list<!torch.float>
    %143 = torch.prim.ListConstruct %float1.100000e01, %float1.000000e00 : (!torch.float, !torch.float) -> !torch.list<!torch.float>
    %144 = torch.prim.ListConstruct %float1.200000e01, %float1.000000e00 : (!torch.float, !torch.float) -> !torch.list<!torch.float>
    %145 = torch.prim.ListConstruct %float1.300000e01, %float1.000000e00 : (!torch.float, !torch.float) -> !torch.list<!torch.float>
    %146 = torch.prim.ListConstruct %float1.400000e01, %float1.000000e00 : (!torch.float, !torch.float) -> !torch.list<!torch.float>
    %147 = torch.prim.ListConstruct %float1.500000e01, %float1.000000e00 : (!torch.float, !torch.float) -> !torch.list<!torch.float>
    %148 = torch.prim.ListConstruct %float1.600000e01, %float1.000000e00 : (!torch.float, !torch.float) -> !torch.list<!torch.float>
    %149 = torch.prim.ListConstruct %float1.700000e01, %float1.000000e00 : (!torch.float, !torch.float) -> !torch.list<!torch.float>
    %150 = torch.prim.ListConstruct %float1.800000e01, %float1.000000e00 : (!torch.float, !torch.float) -> !torch.list<!torch.float>
    %151 = torch.prim.ListConstruct %float1.900000e01, %float1.000000e00 : (!torch.float, !torch.float) -> !torch.list<!torch.float>
    %152 = torch.prim.ListConstruct %132, %133, %134, %135, %136, %137, %138, %139, %140, %141, %142, %143, %144, %145, %146, %147, %148, %149, %150, %151 : (!torch.list<!torch.float>, !torch.list<!torch.float>, !torch.list<!torch.float>, !torch.list<!torch.float>, !torch.list<!torch.float>, !torch.list<!torch.float>, !torch.list<!torch.float>, !torch.list<!torch.float>, !torch.list<!torch.float>, !torch.list<!torch.float>, !torch.list<!torch.float>, !torch.list<!torch.float>, !torch.list<!torch.float>, !torch.list<!torch.float>, !torch.list<!torch.float>, !torch.list<!torch.float>, !torch.list<!torch.float>, !torch.list<!torch.float>, !torch.list<!torch.float>, !torch.list<!torch.float>) -> !torch.list<!torch.list<!torch.float>>
    %153 = torch.prim.ListConstruct %float0.000000e00, %float2.000000e00 : (!torch.float, !torch.float) -> !torch.list<!torch.float>
    %154 = torch.prim.ListConstruct %float1.000000e00, %float2.000000e00 : (!torch.float, !torch.float) -> !torch.list<!torch.float>
    %155 = torch.prim.ListConstruct %float2.000000e00, %float2.000000e00 : (!torch.float, !torch.float) -> !torch.list<!torch.float>
    %156 = torch.prim.ListConstruct %float3.000000e00, %float2.000000e00 : (!torch.float, !torch.float) -> !torch.list<!torch.float>
    %157 = torch.prim.ListConstruct %float4.000000e00, %float2.000000e00 : (!torch.float, !torch.float) -> !torch.list<!torch.float>
    %158 = torch.prim.ListConstruct %float5.000000e00, %float2.000000e00 : (!torch.float, !torch.float) -> !torch.list<!torch.float>
    %159 = torch.prim.ListConstruct %float6.000000e00, %float2.000000e00 : (!torch.float, !torch.float) -> !torch.list<!torch.float>
    %160 = torch.prim.ListConstruct %float7.000000e00, %float2.000000e00 : (!torch.float, !torch.float) -> !torch.list<!torch.float>
    %161 = torch.prim.ListConstruct %float8.000000e00, %float2.000000e00 : (!torch.float, !torch.float) -> !torch.list<!torch.float>
    %162 = torch.prim.ListConstruct %float9.000000e00, %float2.000000e00 : (!torch.float, !torch.float) -> !torch.list<!torch.float>
    %163 = torch.prim.ListConstruct %float1.000000e01, %float2.000000e00 : (!torch.float, !torch.float) -> !torch.list<!torch.float>
    %164 = torch.prim.ListConstruct %float1.100000e01, %float2.000000e00 : (!torch.float, !torch.float) -> !torch.list<!torch.float>
    %165 = torch.prim.ListConstruct %float1.200000e01, %float2.000000e00 : (!torch.float, !torch.float) -> !torch.list<!torch.float>
    %166 = torch.prim.ListConstruct %float1.300000e01, %float2.000000e00 : (!torch.float, !torch.float) -> !torch.list<!torch.float>
    %167 = torch.prim.ListConstruct %float1.400000e01, %float2.000000e00 : (!torch.float, !torch.float) -> !torch.list<!torch.float>
    %168 = torch.prim.ListConstruct %float1.500000e01, %float2.000000e00 : (!torch.float, !torch.float) -> !torch.list<!torch.float>
    %169 = torch.prim.ListConstruct %float1.600000e01, %float2.000000e00 : (!torch.float, !torch.float) -> !torch.list<!torch.float>
    %170 = torch.prim.ListConstruct %float1.700000e01, %float2.000000e00 : (!torch.float, !torch.float) -> !torch.list<!torch.float>
    %171 = torch.prim.ListConstruct %float1.800000e01, %float2.000000e00 : (!torch.float, !torch.float) -> !torch.list<!torch.float>
    %172 = torch.prim.ListConstruct %float1.900000e01, %float2.000000e00 : (!torch.float, !torch.float) -> !torch.list<!torch.float>
    %173 = torch.prim.ListConstruct %153, %154, %155, %156, %157, %158, %159, %160, %161, %162, %163, %164, %165, %166, %167, %168, %169, %170, %171, %172 : (!torch.list<!torch.float>, !torch.list<!torch.float>, !torch.list<!torch.float>, !torch.list<!torch.float>, !torch.list<!torch.float>, !torch.list<!torch.float>, !torch.list<!torch.float>, !torch.list<!torch.float>, !torch.list<!torch.float>, !torch.list<!torch.float>, !torch.list<!torch.float>, !torch.list<!torch.float>, !torch.list<!torch.float>, !torch.list<!torch.float>, !torch.list<!torch.float>, !torch.list<!torch.float>, !torch.list<!torch.float>, !torch.list<!torch.float>, !torch.list<!torch.float>, !torch.list<!torch.float>) -> !torch.list<!torch.list<!torch.float>>
    %174 = torch.prim.ListConstruct %float0.000000e00, %float3.000000e00 : (!torch.float, !torch.float) -> !torch.list<!torch.float>
    %175 = torch.prim.ListConstruct %float1.000000e00, %float3.000000e00 : (!torch.float, !torch.float) -> !torch.list<!torch.float>
    %176 = torch.prim.ListConstruct %float2.000000e00, %float3.000000e00 : (!torch.float, !torch.float) -> !torch.list<!torch.float>
    %177 = torch.prim.ListConstruct %float3.000000e00, %float3.000000e00 : (!torch.float, !torch.float) -> !torch.list<!torch.float>
    %178 = torch.prim.ListConstruct %float4.000000e00, %float3.000000e00 : (!torch.float, !torch.float) -> !torch.list<!torch.float>
    %179 = torch.prim.ListConstruct %float5.000000e00, %float3.000000e00 : (!torch.float, !torch.float) -> !torch.list<!torch.float>
    %180 = torch.prim.ListConstruct %float6.000000e00, %float3.000000e00 : (!torch.float, !torch.float) -> !torch.list<!torch.float>
    %181 = torch.prim.ListConstruct %float7.000000e00, %float3.000000e00 : (!torch.float, !torch.float) -> !torch.list<!torch.float>
    %182 = torch.prim.ListConstruct %float8.000000e00, %float3.000000e00 : (!torch.float, !torch.float) -> !torch.list<!torch.float>
    %183 = torch.prim.ListConstruct %float9.000000e00, %float3.000000e00 : (!torch.float, !torch.float) -> !torch.list<!torch.float>
    %184 = torch.prim.ListConstruct %float1.000000e01, %float3.000000e00 : (!torch.float, !torch.float) -> !torch.list<!torch.float>
    %185 = torch.prim.ListConstruct %float1.100000e01, %float3.000000e00 : (!torch.float, !torch.float) -> !torch.list<!torch.float>
    %186 = torch.prim.ListConstruct %float1.200000e01, %float3.000000e00 : (!torch.float, !torch.float) -> !torch.list<!torch.float>
    %187 = torch.prim.ListConstruct %float1.300000e01, %float3.000000e00 : (!torch.float, !torch.float) -> !torch.list<!torch.float>
    %188 = torch.prim.ListConstruct %float1.400000e01, %float3.000000e00 : (!torch.float, !torch.float) -> !torch.list<!torch.float>
    %189 = torch.prim.ListConstruct %float1.500000e01, %float3.000000e00 : (!torch.float, !torch.float) -> !torch.list<!torch.float>
    %190 = torch.prim.ListConstruct %float1.600000e01, %float3.000000e00 : (!torch.float, !torch.float) -> !torch.list<!torch.float>
    %191 = torch.prim.ListConstruct %float1.700000e01, %float3.000000e00 : (!torch.float, !torch.float) -> !torch.list<!torch.float>
    %192 = torch.prim.ListConstruct %float1.800000e01, %float3.000000e00 : (!torch.float, !torch.float) -> !torch.list<!torch.float>
    %193 = torch.prim.ListConstruct %float1.900000e01, %float3.000000e00 : (!torch.float, !torch.float) -> !torch.list<!torch.float>
    %194 = torch.prim.ListConstruct %174, %175, %176, %177, %178, %179, %180, %181, %182, %183, %184, %185, %186, %187, %188, %189, %190, %191, %192, %193 : (!torch.list<!torch.float>, !torch.list<!torch.float>, !torch.list<!torch.float>, !torch.list<!torch.float>, !torch.list<!torch.float>, !torch.list<!torch.float>, !torch.list<!torch.float>, !torch.list<!torch.float>, !torch.list<!torch.float>, !torch.list<!torch.float>, !torch.list<!torch.float>, !torch.list<!torch.float>, !torch.list<!torch.float>, !torch.list<!torch.float>, !torch.list<!torch.float>, !torch.list<!torch.float>, !torch.list<!torch.float>, !torch.list<!torch.float>, !torch.list<!torch.float>, !torch.list<!torch.float>) -> !torch.list<!torch.list<!torch.float>>
    %195 = torch.prim.ListConstruct %float0.000000e00, %float4.000000e00 : (!torch.float, !torch.float) -> !torch.list<!torch.float>
    %196 = torch.prim.ListConstruct %float1.000000e00, %float4.000000e00 : (!torch.float, !torch.float) -> !torch.list<!torch.float>
    %197 = torch.prim.ListConstruct %float2.000000e00, %float4.000000e00 : (!torch.float, !torch.float) -> !torch.list<!torch.float>
    %198 = torch.prim.ListConstruct %float3.000000e00, %float4.000000e00 : (!torch.float, !torch.float) -> !torch.list<!torch.float>
    %199 = torch.prim.ListConstruct %float4.000000e00, %float4.000000e00 : (!torch.float, !torch.float) -> !torch.list<!torch.float>
    %200 = torch.prim.ListConstruct %float5.000000e00, %float4.000000e00 : (!torch.float, !torch.float) -> !torch.list<!torch.float>
    %201 = torch.prim.ListConstruct %float6.000000e00, %float4.000000e00 : (!torch.float, !torch.float) -> !torch.list<!torch.float>
    %202 = torch.prim.ListConstruct %float7.000000e00, %float4.000000e00 : (!torch.float, !torch.float) -> !torch.list<!torch.float>
    %203 = torch.prim.ListConstruct %float8.000000e00, %float4.000000e00 : (!torch.float, !torch.float) -> !torch.list<!torch.float>
    %204 = torch.prim.ListConstruct %float9.000000e00, %float4.000000e00 : (!torch.float, !torch.float) -> !torch.list<!torch.float>
    %205 = torch.prim.ListConstruct %float1.000000e01, %float4.000000e00 : (!torch.float, !torch.float) -> !torch.list<!torch.float>
    %206 = torch.prim.ListConstruct %float1.100000e01, %float4.000000e00 : (!torch.float, !torch.float) -> !torch.list<!torch.float>
    %207 = torch.prim.ListConstruct %float1.200000e01, %float4.000000e00 : (!torch.float, !torch.float) -> !torch.list<!torch.float>
    %208 = torch.prim.ListConstruct %float1.300000e01, %float4.000000e00 : (!torch.float, !torch.float) -> !torch.list<!torch.float>
    %209 = torch.prim.ListConstruct %float1.400000e01, %float4.000000e00 : (!torch.float, !torch.float) -> !torch.list<!torch.float>
    %210 = torch.prim.ListConstruct %float1.500000e01, %float4.000000e00 : (!torch.float, !torch.float) -> !torch.list<!torch.float>
    %211 = torch.prim.ListConstruct %float1.600000e01, %float4.000000e00 : (!torch.float, !torch.float) -> !torch.list<!torch.float>
    %212 = torch.prim.ListConstruct %float1.700000e01, %float4.000000e00 : (!torch.float, !torch.float) -> !torch.list<!torch.float>
    %213 = torch.prim.ListConstruct %float1.800000e01, %float4.000000e00 : (!torch.float, !torch.float) -> !torch.list<!torch.float>
    %214 = torch.prim.ListConstruct %float1.900000e01, %float4.000000e00 : (!torch.float, !torch.float) -> !torch.list<!torch.float>
    %215 = torch.prim.ListConstruct %195, %196, %197, %198, %199, %200, %201, %202, %203, %204, %205, %206, %207, %208, %209, %210, %211, %212, %213, %214 : (!torch.list<!torch.float>, !torch.list<!torch.float>, !torch.list<!torch.float>, !torch.list<!torch.float>, !torch.list<!torch.float>, !torch.list<!torch.float>, !torch.list<!torch.float>, !torch.list<!torch.float>, !torch.list<!torch.float>, !torch.list<!torch.float>, !torch.list<!torch.float>, !torch.list<!torch.float>, !torch.list<!torch.float>, !torch.list<!torch.float>, !torch.list<!torch.float>, !torch.list<!torch.float>, !torch.list<!torch.float>, !torch.list<!torch.float>, !torch.list<!torch.float>, !torch.list<!torch.float>) -> !torch.list<!torch.list<!torch.float>>
    %216 = torch.prim.ListConstruct %float0.000000e00, %float5.000000e00 : (!torch.float, !torch.float) -> !torch.list<!torch.float>
    %217 = torch.prim.ListConstruct %float1.000000e00, %float5.000000e00 : (!torch.float, !torch.float) -> !torch.list<!torch.float>
    %218 = torch.prim.ListConstruct %float2.000000e00, %float5.000000e00 : (!torch.float, !torch.float) -> !torch.list<!torch.float>
    %219 = torch.prim.ListConstruct %float3.000000e00, %float5.000000e00 : (!torch.float, !torch.float) -> !torch.list<!torch.float>
    %220 = torch.prim.ListConstruct %float4.000000e00, %float5.000000e00 : (!torch.float, !torch.float) -> !torch.list<!torch.float>
    %221 = torch.prim.ListConstruct %float5.000000e00, %float5.000000e00 : (!torch.float, !torch.float) -> !torch.list<!torch.float>
    %222 = torch.prim.ListConstruct %float6.000000e00, %float5.000000e00 : (!torch.float, !torch.float) -> !torch.list<!torch.float>
    %223 = torch.prim.ListConstruct %float7.000000e00, %float5.000000e00 : (!torch.float, !torch.float) -> !torch.list<!torch.float>
    %224 = torch.prim.ListConstruct %float8.000000e00, %float5.000000e00 : (!torch.float, !torch.float) -> !torch.list<!torch.float>
    %225 = torch.prim.ListConstruct %float9.000000e00, %float5.000000e00 : (!torch.float, !torch.float) -> !torch.list<!torch.float>
    %226 = torch.prim.ListConstruct %float1.000000e01, %float5.000000e00 : (!torch.float, !torch.float) -> !torch.list<!torch.float>
    %227 = torch.prim.ListConstruct %float1.100000e01, %float5.000000e00 : (!torch.float, !torch.float) -> !torch.list<!torch.float>
    %228 = torch.prim.ListConstruct %float1.200000e01, %float5.000000e00 : (!torch.float, !torch.float) -> !torch.list<!torch.float>
    %229 = torch.prim.ListConstruct %float1.300000e01, %float5.000000e00 : (!torch.float, !torch.float) -> !torch.list<!torch.float>
    %230 = torch.prim.ListConstruct %float1.400000e01, %float5.000000e00 : (!torch.float, !torch.float) -> !torch.list<!torch.float>
    %231 = torch.prim.ListConstruct %float1.500000e01, %float5.000000e00 : (!torch.float, !torch.float) -> !torch.list<!torch.float>
    %232 = torch.prim.ListConstruct %float1.600000e01, %float5.000000e00 : (!torch.float, !torch.float) -> !torch.list<!torch.float>
    %233 = torch.prim.ListConstruct %float1.700000e01, %float5.000000e00 : (!torch.float, !torch.float) -> !torch.list<!torch.float>
    %234 = torch.prim.ListConstruct %float1.800000e01, %float5.000000e00 : (!torch.float, !torch.float) -> !torch.list<!torch.float>
    %235 = torch.prim.ListConstruct %float1.900000e01, %float5.000000e00 : (!torch.float, !torch.float) -> !torch.list<!torch.float>
    %236 = torch.prim.ListConstruct %216, %217, %218, %219, %220, %221, %222, %223, %224, %225, %226, %227, %228, %229, %230, %231, %232, %233, %234, %235 : (!torch.list<!torch.float>, !torch.list<!torch.float>, !torch.list<!torch.float>, !torch.list<!torch.float>, !torch.list<!torch.float>, !torch.list<!torch.float>, !torch.list<!torch.float>, !torch.list<!torch.float>, !torch.list<!torch.float>, !torch.list<!torch.float>, !torch.list<!torch.float>, !torch.list<!torch.float>, !torch.list<!torch.float>, !torch.list<!torch.float>, !torch.list<!torch.float>, !torch.list<!torch.float>, !torch.list<!torch.float>, !torch.list<!torch.float>, !torch.list<!torch.float>, !torch.list<!torch.float>) -> !torch.list<!torch.list<!torch.float>>
    %237 = torch.prim.ListConstruct %float0.000000e00, %float6.000000e00 : (!torch.float, !torch.float) -> !torch.list<!torch.float>
    %238 = torch.prim.ListConstruct %float1.000000e00, %float6.000000e00 : (!torch.float, !torch.float) -> !torch.list<!torch.float>
    %239 = torch.prim.ListConstruct %float2.000000e00, %float6.000000e00 : (!torch.float, !torch.float) -> !torch.list<!torch.float>
    %240 = torch.prim.ListConstruct %float3.000000e00, %float6.000000e00 : (!torch.float, !torch.float) -> !torch.list<!torch.float>
    %241 = torch.prim.ListConstruct %float4.000000e00, %float6.000000e00 : (!torch.float, !torch.float) -> !torch.list<!torch.float>
    %242 = torch.prim.ListConstruct %float5.000000e00, %float6.000000e00 : (!torch.float, !torch.float) -> !torch.list<!torch.float>
    %243 = torch.prim.ListConstruct %float6.000000e00, %float6.000000e00 : (!torch.float, !torch.float) -> !torch.list<!torch.float>
    %244 = torch.prim.ListConstruct %float7.000000e00, %float6.000000e00 : (!torch.float, !torch.float) -> !torch.list<!torch.float>
    %245 = torch.prim.ListConstruct %float8.000000e00, %float6.000000e00 : (!torch.float, !torch.float) -> !torch.list<!torch.float>
    %246 = torch.prim.ListConstruct %float9.000000e00, %float6.000000e00 : (!torch.float, !torch.float) -> !torch.list<!torch.float>
    %247 = torch.prim.ListConstruct %float1.000000e01, %float6.000000e00 : (!torch.float, !torch.float) -> !torch.list<!torch.float>
    %248 = torch.prim.ListConstruct %float1.100000e01, %float6.000000e00 : (!torch.float, !torch.float) -> !torch.list<!torch.float>
    %249 = torch.prim.ListConstruct %float1.200000e01, %float6.000000e00 : (!torch.float, !torch.float) -> !torch.list<!torch.float>
    %250 = torch.prim.ListConstruct %float1.300000e01, %float6.000000e00 : (!torch.float, !torch.float) -> !torch.list<!torch.float>
    %251 = torch.prim.ListConstruct %float1.400000e01, %float6.000000e00 : (!torch.float, !torch.float) -> !torch.list<!torch.float>
    %252 = torch.prim.ListConstruct %float1.500000e01, %float6.000000e00 : (!torch.float, !torch.float) -> !torch.list<!torch.float>
    %253 = torch.prim.ListConstruct %float1.600000e01, %float6.000000e00 : (!torch.float, !torch.float) -> !torch.list<!torch.float>
    %254 = torch.prim.ListConstruct %float1.700000e01, %float6.000000e00 : (!torch.float, !torch.float) -> !torch.list<!torch.float>
    %255 = torch.prim.ListConstruct %float1.800000e01, %float6.000000e00 : (!torch.float, !torch.float) -> !torch.list<!torch.float>
    %256 = torch.prim.ListConstruct %float1.900000e01, %float6.000000e00 : (!torch.float, !torch.float) -> !torch.list<!torch.float>
    %257 = torch.prim.ListConstruct %237, %238, %239, %240, %241, %242, %243, %244, %245, %246, %247, %248, %249, %250, %251, %252, %253, %254, %255, %256 : (!torch.list<!torch.float>, !torch.list<!torch.float>, !torch.list<!torch.float>, !torch.list<!torch.float>, !torch.list<!torch.float>, !torch.list<!torch.float>, !torch.list<!torch.float>, !torch.list<!torch.float>, !torch.list<!torch.float>, !torch.list<!torch.float>, !torch.list<!torch.float>, !torch.list<!torch.float>, !torch.list<!torch.float>, !torch.list<!torch.float>, !torch.list<!torch.float>, !torch.list<!torch.float>, !torch.list<!torch.float>, !torch.list<!torch.float>, !torch.list<!torch.float>, !torch.list<!torch.float>) -> !torch.list<!torch.list<!torch.float>>
    %258 = torch.prim.ListConstruct %float0.000000e00, %float7.000000e00 : (!torch.float, !torch.float) -> !torch.list<!torch.float>
    %259 = torch.prim.ListConstruct %float1.000000e00, %float7.000000e00 : (!torch.float, !torch.float) -> !torch.list<!torch.float>
    %260 = torch.prim.ListConstruct %float2.000000e00, %float7.000000e00 : (!torch.float, !torch.float) -> !torch.list<!torch.float>
    %261 = torch.prim.ListConstruct %float3.000000e00, %float7.000000e00 : (!torch.float, !torch.float) -> !torch.list<!torch.float>
    %262 = torch.prim.ListConstruct %float4.000000e00, %float7.000000e00 : (!torch.float, !torch.float) -> !torch.list<!torch.float>
    %263 = torch.prim.ListConstruct %float5.000000e00, %float7.000000e00 : (!torch.float, !torch.float) -> !torch.list<!torch.float>
    %264 = torch.prim.ListConstruct %float6.000000e00, %float7.000000e00 : (!torch.float, !torch.float) -> !torch.list<!torch.float>
    %265 = torch.prim.ListConstruct %float7.000000e00, %float7.000000e00 : (!torch.float, !torch.float) -> !torch.list<!torch.float>
    %266 = torch.prim.ListConstruct %float8.000000e00, %float7.000000e00 : (!torch.float, !torch.float) -> !torch.list<!torch.float>
    %267 = torch.prim.ListConstruct %float9.000000e00, %float7.000000e00 : (!torch.float, !torch.float) -> !torch.list<!torch.float>
    %268 = torch.prim.ListConstruct %float1.000000e01, %float7.000000e00 : (!torch.float, !torch.float) -> !torch.list<!torch.float>
    %269 = torch.prim.ListConstruct %float1.100000e01, %float7.000000e00 : (!torch.float, !torch.float) -> !torch.list<!torch.float>
    %270 = torch.prim.ListConstruct %float1.200000e01, %float7.000000e00 : (!torch.float, !torch.float) -> !torch.list<!torch.float>
    %271 = torch.prim.ListConstruct %float1.300000e01, %float7.000000e00 : (!torch.float, !torch.float) -> !torch.list<!torch.float>
    %272 = torch.prim.ListConstruct %float1.400000e01, %float7.000000e00 : (!torch.float, !torch.float) -> !torch.list<!torch.float>
    %273 = torch.prim.ListConstruct %float1.500000e01, %float7.000000e00 : (!torch.float, !torch.float) -> !torch.list<!torch.float>
    %274 = torch.prim.ListConstruct %float1.600000e01, %float7.000000e00 : (!torch.float, !torch.float) -> !torch.list<!torch.float>
    %275 = torch.prim.ListConstruct %float1.700000e01, %float7.000000e00 : (!torch.float, !torch.float) -> !torch.list<!torch.float>
    %276 = torch.prim.ListConstruct %float1.800000e01, %float7.000000e00 : (!torch.float, !torch.float) -> !torch.list<!torch.float>
    %277 = torch.prim.ListConstruct %float1.900000e01, %float7.000000e00 : (!torch.float, !torch.float) -> !torch.list<!torch.float>
    %278 = torch.prim.ListConstruct %258, %259, %260, %261, %262, %263, %264, %265, %266, %267, %268, %269, %270, %271, %272, %273, %274, %275, %276, %277 : (!torch.list<!torch.float>, !torch.list<!torch.float>, !torch.list<!torch.float>, !torch.list<!torch.float>, !torch.list<!torch.float>, !torch.list<!torch.float>, !torch.list<!torch.float>, !torch.list<!torch.float>, !torch.list<!torch.float>, !torch.list<!torch.float>, !torch.list<!torch.float>, !torch.list<!torch.float>, !torch.list<!torch.float>, !torch.list<!torch.float>, !torch.list<!torch.float>, !torch.list<!torch.float>, !torch.list<!torch.float>, !torch.list<!torch.float>, !torch.list<!torch.float>, !torch.list<!torch.float>) -> !torch.list<!torch.list<!torch.float>>
    %279 = torch.prim.ListConstruct %float0.000000e00, %float8.000000e00 : (!torch.float, !torch.float) -> !torch.list<!torch.float>
    %280 = torch.prim.ListConstruct %float1.000000e00, %float8.000000e00 : (!torch.float, !torch.float) -> !torch.list<!torch.float>
    %281 = torch.prim.ListConstruct %float2.000000e00, %float8.000000e00 : (!torch.float, !torch.float) -> !torch.list<!torch.float>
    %282 = torch.prim.ListConstruct %float3.000000e00, %float8.000000e00 : (!torch.float, !torch.float) -> !torch.list<!torch.float>
    %283 = torch.prim.ListConstruct %float4.000000e00, %float8.000000e00 : (!torch.float, !torch.float) -> !torch.list<!torch.float>
    %284 = torch.prim.ListConstruct %float5.000000e00, %float8.000000e00 : (!torch.float, !torch.float) -> !torch.list<!torch.float>
    %285 = torch.prim.ListConstruct %float6.000000e00, %float8.000000e00 : (!torch.float, !torch.float) -> !torch.list<!torch.float>
    %286 = torch.prim.ListConstruct %float7.000000e00, %float8.000000e00 : (!torch.float, !torch.float) -> !torch.list<!torch.float>
    %287 = torch.prim.ListConstruct %float8.000000e00, %float8.000000e00 : (!torch.float, !torch.float) -> !torch.list<!torch.float>
    %288 = torch.prim.ListConstruct %float9.000000e00, %float8.000000e00 : (!torch.float, !torch.float) -> !torch.list<!torch.float>
    %289 = torch.prim.ListConstruct %float1.000000e01, %float8.000000e00 : (!torch.float, !torch.float) -> !torch.list<!torch.float>
    %290 = torch.prim.ListConstruct %float1.100000e01, %float8.000000e00 : (!torch.float, !torch.float) -> !torch.list<!torch.float>
    %291 = torch.prim.ListConstruct %float1.200000e01, %float8.000000e00 : (!torch.float, !torch.float) -> !torch.list<!torch.float>
    %292 = torch.prim.ListConstruct %float1.300000e01, %float8.000000e00 : (!torch.float, !torch.float) -> !torch.list<!torch.float>
    %293 = torch.prim.ListConstruct %float1.400000e01, %float8.000000e00 : (!torch.float, !torch.float) -> !torch.list<!torch.float>
    %294 = torch.prim.ListConstruct %float1.500000e01, %float8.000000e00 : (!torch.float, !torch.float) -> !torch.list<!torch.float>
    %295 = torch.prim.ListConstruct %float1.600000e01, %float8.000000e00 : (!torch.float, !torch.float) -> !torch.list<!torch.float>
    %296 = torch.prim.ListConstruct %float1.700000e01, %float8.000000e00 : (!torch.float, !torch.float) -> !torch.list<!torch.float>
    %297 = torch.prim.ListConstruct %float1.800000e01, %float8.000000e00 : (!torch.float, !torch.float) -> !torch.list<!torch.float>
    %298 = torch.prim.ListConstruct %float1.900000e01, %float8.000000e00 : (!torch.float, !torch.float) -> !torch.list<!torch.float>
    %299 = torch.prim.ListConstruct %279, %280, %281, %282, %283, %284, %285, %286, %287, %288, %289, %290, %291, %292, %293, %294, %295, %296, %297, %298 : (!torch.list<!torch.float>, !torch.list<!torch.float>, !torch.list<!torch.float>, !torch.list<!torch.float>, !torch.list<!torch.float>, !torch.list<!torch.float>, !torch.list<!torch.float>, !torch.list<!torch.float>, !torch.list<!torch.float>, !torch.list<!torch.float>, !torch.list<!torch.float>, !torch.list<!torch.float>, !torch.list<!torch.float>, !torch.list<!torch.float>, !torch.list<!torch.float>, !torch.list<!torch.float>, !torch.list<!torch.float>, !torch.list<!torch.float>, !torch.list<!torch.float>, !torch.list<!torch.float>) -> !torch.list<!torch.list<!torch.float>>
    %300 = torch.prim.ListConstruct %float0.000000e00, %float9.000000e00 : (!torch.float, !torch.float) -> !torch.list<!torch.float>
    %301 = torch.prim.ListConstruct %float1.000000e00, %float9.000000e00 : (!torch.float, !torch.float) -> !torch.list<!torch.float>
    %302 = torch.prim.ListConstruct %float2.000000e00, %float9.000000e00 : (!torch.float, !torch.float) -> !torch.list<!torch.float>
    %303 = torch.prim.ListConstruct %float3.000000e00, %float9.000000e00 : (!torch.float, !torch.float) -> !torch.list<!torch.float>
    %304 = torch.prim.ListConstruct %float4.000000e00, %float9.000000e00 : (!torch.float, !torch.float) -> !torch.list<!torch.float>
    %305 = torch.prim.ListConstruct %float5.000000e00, %float9.000000e00 : (!torch.float, !torch.float) -> !torch.list<!torch.float>
    %306 = torch.prim.ListConstruct %float6.000000e00, %float9.000000e00 : (!torch.float, !torch.float) -> !torch.list<!torch.float>
    %307 = torch.prim.ListConstruct %float7.000000e00, %float9.000000e00 : (!torch.float, !torch.float) -> !torch.list<!torch.float>
    %308 = torch.prim.ListConstruct %float8.000000e00, %float9.000000e00 : (!torch.float, !torch.float) -> !torch.list<!torch.float>
    %309 = torch.prim.ListConstruct %float9.000000e00, %float9.000000e00 : (!torch.float, !torch.float) -> !torch.list<!torch.float>
    %310 = torch.prim.ListConstruct %float1.000000e01, %float9.000000e00 : (!torch.float, !torch.float) -> !torch.list<!torch.float>
    %311 = torch.prim.ListConstruct %float1.100000e01, %float9.000000e00 : (!torch.float, !torch.float) -> !torch.list<!torch.float>
    %312 = torch.prim.ListConstruct %float1.200000e01, %float9.000000e00 : (!torch.float, !torch.float) -> !torch.list<!torch.float>
    %313 = torch.prim.ListConstruct %float1.300000e01, %float9.000000e00 : (!torch.float, !torch.float) -> !torch.list<!torch.float>
    %314 = torch.prim.ListConstruct %float1.400000e01, %float9.000000e00 : (!torch.float, !torch.float) -> !torch.list<!torch.float>
    %315 = torch.prim.ListConstruct %float1.500000e01, %float9.000000e00 : (!torch.float, !torch.float) -> !torch.list<!torch.float>
    %316 = torch.prim.ListConstruct %float1.600000e01, %float9.000000e00 : (!torch.float, !torch.float) -> !torch.list<!torch.float>
    %317 = torch.prim.ListConstruct %float1.700000e01, %float9.000000e00 : (!torch.float, !torch.float) -> !torch.list<!torch.float>
    %318 = torch.prim.ListConstruct %float1.800000e01, %float9.000000e00 : (!torch.float, !torch.float) -> !torch.list<!torch.float>
    %319 = torch.prim.ListConstruct %float1.900000e01, %float9.000000e00 : (!torch.float, !torch.float) -> !torch.list<!torch.float>
    %320 = torch.prim.ListConstruct %300, %301, %302, %303, %304, %305, %306, %307, %308, %309, %310, %311, %312, %313, %314, %315, %316, %317, %318, %319 : (!torch.list<!torch.float>, !torch.list<!torch.float>, !torch.list<!torch.float>, !torch.list<!torch.float>, !torch.list<!torch.float>, !torch.list<!torch.float>, !torch.list<!torch.float>, !torch.list<!torch.float>, !torch.list<!torch.float>, !torch.list<!torch.float>, !torch.list<!torch.float>, !torch.list<!torch.float>, !torch.list<!torch.float>, !torch.list<!torch.float>, !torch.list<!torch.float>, !torch.list<!torch.float>, !torch.list<!torch.float>, !torch.list<!torch.float>, !torch.list<!torch.float>, !torch.list<!torch.float>) -> !torch.list<!torch.list<!torch.float>>
    %321 = torch.prim.ListConstruct %131, %152, %173, %194, %215, %236, %257, %278, %299, %320 : (!torch.list<!torch.list<!torch.float>>, !torch.list<!torch.list<!torch.float>>, !torch.list<!torch.list<!torch.float>>, !torch.list<!torch.list<!torch.float>>, !torch.list<!torch.list<!torch.float>>, !torch.list<!torch.list<!torch.float>>, !torch.list<!torch.list<!torch.float>>, !torch.list<!torch.list<!torch.float>>, !torch.list<!torch.list<!torch.float>>, !torch.list<!torch.list<!torch.float>>) -> !torch.list<!torch.list<!torch.list<!torch.float>>>
    %322 = torch.prim.ListConstruct %321 : (!torch.list<!torch.list<!torch.list<!torch.float>>>) -> !torch.list<!torch.list<!torch.list<!torch.list<!torch.float>>>>
    %323 = torch.prim.ListConstruct %322 : (!torch.list<!torch.list<!torch.list<!torch.list<!torch.float>>>>) -> !torch.list<!torch.list<!torch.list<!torch.list<!torch.list<!torch.float>>>>>
    %324 = torch.aten.tensor %323, %none, %none, %false : !torch.list<!torch.list<!torch.list<!torch.list<!torch.list<!torch.float>>>>>, !torch.none, !torch.none, !torch.bool -> !torch.vtensor<[?,?,?,?,?],f32>
    %325 = torch.aten.to.dtype %0, %int6, %false, %false, %none : !torch.vtensor<[6,2],si64>, !torch.int, !torch.bool, !torch.bool, !torch.none -> !torch.vtensor<[6,2],f32>
    %326 = torch.aten.div.Tensor %325, %110 : !torch.vtensor<[6,2],f32>, !torch.vtensor<[],f32> -> !torch.vtensor<[6,2],f32>
    %327 = torch.prim.ListConstruct %int1, %int6, %int1, %int1, %int2 : (!torch.int, !torch.int, !torch.int, !torch.int, !torch.int) -> !torch.list<!torch.int>
    %328 = torch.aten.view %326, %327 : !torch.vtensor<[6,2],f32>, !torch.list<!torch.int> -> !torch.vtensor<[1,6,1,1,2],f32>
    %329 = torch.aten.tensor.int %102#3, %none, %none, %false : !torch.int, !torch.none, !torch.none, !torch.bool -> !torch.vtensor<[],si64>
    %330 = torch.aten.tensor.int %102#2, %none, %none, %false : !torch.int, !torch.none, !torch.none, !torch.bool -> !torch.vtensor<[],si64>
    %331 = torch.aten.remainder.int %102#1, %int6 : !torch.int, !torch.int -> !torch.int
    %332 = torch.aten.eq.int %331, %int0 : !torch.int, !torch.int -> !torch.bool
    torch.prim.If %332 -> () {
      torch.prim.If.yield
    } else {
      torch.prim.RaiseException %str, %none : !torch.str, !torch.none
      torch.prim.If.yield
    }
    %333 = torch.aten.IntImplicit %330 : !torch.vtensor<[],si64> -> !torch.int
    %334 = torch.aten.IntImplicit %329 : !torch.vtensor<[],si64> -> !torch.int
    %335 = torch.prim.ListConstruct %102#0, %int6, %int6, %333, %334 : (!torch.int, !torch.int, !torch.int, !torch.int, !torch.int) -> !torch.list<!torch.int>
    %336 = torch.aten.view %95, %335 : !torch.tensor<[?,36,?,?],f32>, !torch.list<!torch.int> -> !torch.tensor<[?,6,6,?,?],f32>
    %337 = torch.prim.ListConstruct %int0, %int1, %int3, %int4, %int2 : (!torch.int, !torch.int, !torch.int, !torch.int, !torch.int) -> !torch.list<!torch.int>
    %338 = torch.aten.permute %336, %337 : !torch.tensor<[?,6,6,?,?],f32>, !torch.list<!torch.int> -> !torch.tensor<[?,6,?,?,6],f32>
    %339 = torch.aten.contiguous %338, %int0 : !torch.tensor<[?,6,?,?,6],f32>, !torch.int -> !torch.tensor<[?,6,?,?,6],f32>
    %340 = torch.copy.to_vtensor %339 : !torch.vtensor<[?,6,?,?,6],f32>
    %341 = torch.aten.clone %340, %none : !torch.vtensor<[?,6,?,?,6],f32>, !torch.none -> !torch.vtensor<[?,6,?,?,6],f32>
    %342 = torch.copy.to_tensor %341 : !torch.tensor<[?,6,?,?,6],f32>
    %343 = torch.aten.slice.Tensor %342, %int-1, %none, %int2, %int1 : !torch.tensor<[?,6,?,?,6],f32>, !torch.int, !torch.none, !torch.int, !torch.int -> !torch.tensor<[?,6,?,?,?],f32>
    %344 = torch.copy.to_vtensor %343 : !torch.vtensor<[?,6,?,?,?],f32>
    %345 = torch.aten.sigmoid %344 : !torch.vtensor<[?,6,?,?,?],f32> -> !torch.vtensor<[?,6,?,?,?],f32>
    %346 = torch.aten.add.Tensor %345, %324, %int1 : !torch.vtensor<[?,6,?,?,?],f32>, !torch.vtensor<[?,?,?,?,?],f32>, !torch.int -> !torch.vtensor<[?,?,?,?,?],f32>
    %347 = torch.copy.to_tensor %346 : !torch.tensor<[?,?,?,?,?],f32>
    %348 = torch.aten.slice.Tensor %342, %int-1, %none, %int2, %int1 : !torch.tensor<[?,6,?,?,6],f32>, !torch.int, !torch.none, !torch.int, !torch.int -> !torch.tensor<[?,6,?,?,?],f32>
    %349 = torch.aten.copy_ %348, %347, %false : !torch.tensor<[?,6,?,?,?],f32>, !torch.tensor<[?,?,?,?,?],f32>, !torch.bool -> !torch.tensor<[?,6,?,?,?],f32>
    %350 = torch.aten.slice.Tensor %342, %int-1, %int2, %int4, %int1 : !torch.tensor<[?,6,?,?,6],f32>, !torch.int, !torch.int, !torch.int, !torch.int -> !torch.tensor<[?,6,?,?,?],f32>
    %351 = torch.copy.to_vtensor %350 : !torch.vtensor<[?,6,?,?,?],f32>
    %352 = torch.aten.exp %351 : !torch.vtensor<[?,6,?,?,?],f32> -> !torch.vtensor<[?,6,?,?,?],f32>
    %353 = torch.aten.mul.Tensor %352, %328 : !torch.vtensor<[?,6,?,?,?],f32>, !torch.vtensor<[1,6,1,1,2],f32> -> !torch.vtensor<[?,6,?,?,?],f32>
    %354 = torch.copy.to_tensor %353 : !torch.tensor<[?,6,?,?,?],f32>
    %355 = torch.aten.slice.Tensor %342, %int-1, %int2, %int4, %int1 : !torch.tensor<[?,6,?,?,6],f32>, !torch.int, !torch.int, !torch.int, !torch.int -> !torch.tensor<[?,6,?,?,?],f32>
    %356 = torch.aten.copy_ %355, %354, %false : !torch.tensor<[?,6,?,?,?],f32>, !torch.tensor<[?,6,?,?,?],f32>, !torch.bool -> !torch.tensor<[?,6,?,?,?],f32>
    %357 = torch.aten.slice.Tensor %342, %int-1, %none, %int4, %int1 : !torch.tensor<[?,6,?,?,6],f32>, !torch.int, !torch.none, !torch.int, !torch.int -> !torch.tensor<[?,6,?,?,?],f32>
    %358 = torch.copy.to_vtensor %357 : !torch.vtensor<[?,6,?,?,?],f32>
    %359 = torch.aten.mul.Tensor %358, %110 : !torch.vtensor<[?,6,?,?,?],f32>, !torch.vtensor<[],f32> -> !torch.vtensor<[?,6,?,?,?],f32>
    torch.overwrite.tensor %359 overwrites %357 : !torch.vtensor<[?,6,?,?,?],f32>, !torch.tensor<[?,6,?,?,?],f32>
    %360 = torch.aten.slice.Tensor %342, %int-1, %int4, %none, %int1 : !torch.tensor<[?,6,?,?,6],f32>, !torch.int, !torch.int, !torch.none, !torch.int -> !torch.tensor<[?,6,?,?,?],f32>
    %361 = torch.copy.to_vtensor %360 : !torch.vtensor<[?,6,?,?,?],f32>
    %362 = torch.aten.sigmoid %361 : !torch.vtensor<[?,6,?,?,?],f32> -> !torch.vtensor<[?,6,?,?,?],f32>
    torch.overwrite.tensor %362 overwrites %360 : !torch.vtensor<[?,6,?,?,?],f32>, !torch.tensor<[?,6,?,?,?],f32>
    %363 = torch.prim.ListConstruct %102#0, %int-1, %int6 : (!torch.int, !torch.int, !torch.int) -> !torch.list<!torch.int>
    %364 = torch.aten.view %342, %363 : !torch.tensor<[?,6,?,?,6],f32>, !torch.list<!torch.int> -> !torch.tensor<[?,?,6],f32>
    %365 = torch.prim.ListConstruct %339 : (!torch.tensor<[?,6,?,?,6],f32>) -> !torch.list<!torch.tensor>
    %366 = torch.copy.to_vtensor %364 : !torch.vtensor<[?,?,6],f32>
    return %366, %365 : !torch.vtensor<[?,?,6],f32>, !torch.list<!torch.tensor>
  }
}

